…
          "base_uri": "https://localhost:8080/"
        },
        "id": "BFxdzLgc6oI2",
        "outputId": "b6866fda-dc9b-4c1f-9ba5-761036bf9cfa"
      },
      "execution_count": null,
      "outputs": [
        {
          "output_type": "stream",
          "name": "stdout",
          "text": [
            "Model: \"sequential_2\"\n",
            "_________________________________________________________________\n",
            " Layer (type)                Output Shape              Param #   \n",
            "=================================================================\n",
            " random_rotation_2 (RandomRo  (60000, 28, 28, 1)       0         \n",
            " tation)                                                         \n",
            "                                                                 \n",
            " random_zoom_2 (RandomZoom)  (60000, 28, 28, 1)        0         \n",
            "                                                                 \n",
            " random_crop_2 (RandomCrop)  (60000, 27, 27, 1)        0         \n",
            "                                                                 \n",
            " conv2d_12 (Conv2D)          (60000, 24, 24, 16)       272       \n",
            "                                                                 \n",
            " batch_normalization_12 (Bat  (60000, 24, 24, 16)      64        \n",
            " chNormalization)                                                \n",
            "                                                                 \n",
            " conv2d_13 (Conv2D)          (60000, 21, 21, 16)       4112      \n",
            "                                                                 \n",
            " batch_normalization_13 (Bat  (60000, 21, 21, 16)      64        \n",
            " chNormalization)                                                \n",
            "                                                                 \n",
            " max_pooling2d_6 (MaxPooling  (60000, 20, 20, 16)      0         \n",
            " 2D)                                                             \n",
            "                                                                 \n",
            " dropout_10 (Dropout)        (60000, 20, 20, 16)       0         \n",
            "                                                                 \n",
            " conv2d_14 (Conv2D)          (60000, 17, 17, 32)       8224      \n",
            "                                                                 \n",
            " batch_normalization_14 (Bat  (60000, 17, 17, 32)      128       \n",
            " chNormalization)                                                \n",
            "                                                                 \n",
            " conv2d_15 (Conv2D)          (60000, 14, 14, 32)       16416     \n",
            "                                                                 \n",
            " batch_normalization_15 (Bat  (60000, 14, 14, 32)      128       \n",
            " chNormalization)                                                \n",
            "                                                                 \n",
            " max_pooling2d_7 (MaxPooling  (60000, 13, 13, 32)      0         \n",
            " 2D)                                                             \n",
            "                                                                 \n",
            " dropout_11 (Dropout)        (60000, 13, 13, 32)       0         \n",
            "                                                                 \n",
            " conv2d_16 (Conv2D)          (60000, 10, 10, 64)       32832     \n",
            "                                                                 \n",
            " batch_normalization_16 (Bat  (60000, 10, 10, 64)      256       \n",
            " chNormalization)                                                \n",
            "                                                                 \n",
            " conv2d_17 (Conv2D)          (60000, 7, 7, 64)         65600     \n",
            "                                                                 \n",
            " batch_normalization_17 (Bat  (60000, 7, 7, 64)        256       \n",
            " chNormalization)                                                \n",
            "                                                                 \n",
            " max_pooling2d_8 (MaxPooling  (60000, 6, 6, 64)        0         \n",
            " 2D)                                                             \n",
            "                                                                 \n",
            " dropout_12 (Dropout)        (60000, 6, 6, 64)         0         \n",
            "                                                                 \n",
            " flatten_2 (Flatten)         (60000, 2304)             0         \n",
            "                                                                 \n",
            " dense_6 (Dense)             (60000, 512)              1180160   \n",
            "                                                                 \n",
            " dropout_13 (Dropout)        (60000, 512)              0         \n",
            "                                                                 \n",
            " dense_7 (Dense)             (60000, 1024)             525312    \n",
            "                                                                 \n",
            " dropout_14 (Dropout)        (60000, 1024)             0         \n",
            "                                                                 \n",
            " dense_8 (Dense)             (60000, 10)               10250     \n",
            "                                                                 \n",
            "=================================================================\n",
            "Total params: 1,844,074\n",
            "Trainable params: 1,843,626\n",
            "Non-trainable params: 448\n",
            "_________________________________________________________________\n"
          ]
        }
…
          "base_uri": "https://localhost:8080/"
        },
        "id": "zxIpnJFr7JfE",
        "outputId": "6d59d408-08bd-4268-801c-12e3ec6a3812"
      },
      "execution_count": null,
      "outputs": [
        {
          "output_type": "stream",
          "name": "stdout",
          "text": [
            "Model: \"sequential_2\"\n",
            "_________________________________________________________________\n",
            " Layer (type)                Output Shape              Param #   \n",
            "=================================================================\n",
            " random_rotation_2 (RandomRo  (None, 28, 28, 1)        0         \n",
            " tation)                                                         \n",
            "                                                                 \n",
            " random_zoom_2 (RandomZoom)  (None, 28, 28, 1)         0         \n",
            "                                                                 \n",
            " random_crop_2 (RandomCrop)  (None, 27, 27, 1)         0         \n",
            "                                                                 \n",
            " conv2d_12 (Conv2D)          (None, 24, 24, 16)        272       \n",
            "                                                                 \n",
            " batch_normalization_12 (Bat  (None, 24, 24, 16)       64        \n",
            " chNormalization)                                                \n",
            "                                                                 \n",
            " conv2d_13 (Conv2D)          (None, 21, 21, 16)        4112      \n",
            "                                                                 \n",
            " batch_normalization_13 (Bat  (None, 21, 21, 16)       64        \n",
            " chNormalization)                                                \n",
            "                                                                 \n",
            " max_pooling2d_6 (MaxPooling  (None, 20, 20, 16)       0         \n",
            " 2D)                                                             \n",
            "                                                                 \n",
            " dropout_10 (Dropout)        (None, 20, 20, 16)        0         \n",
            "                                                                 \n",
            " conv2d_14 (Conv2D)          (None, 17, 17, 32)        8224      \n",
            "                                                                 \n",
            " batch_normalization_14 (Bat  (None, 17, 17, 32)       128       \n",
            " chNormalization)                                                \n",
            "                                                                 \n",
            " conv2d_15 (Conv2D)          (None, 14, 14, 32)        16416     \n",
            "                                                                 \n",
            " batch_normalization_15 (Bat  (None, 14, 14, 32)       128       \n",
            " chNormalization)                                                \n",
            "                                                                 \n",
            " max_pooling2d_7 (MaxPooling  (None, 13, 13, 32)       0         \n",
            " 2D)                                                             \n",
            "                                                                 \n",
            " dropout_11 (Dropout)        (None, 13, 13, 32)        0         \n",
            "                                                                 \n",
            " conv2d_16 (Conv2D)          (None, 10, 10, 64)        32832     \n",
            "                                                                 \n",
            " batch_normalization_16 (Bat  (None, 10, 10, 64)       256       \n",
            " chNormalization)                                                \n",
            "                                                                 \n",
            " conv2d_17 (Conv2D)          (None, 7, 7, 64)          65600     \n",
            "                                                                 \n",
            " batch_normalization_17 (Bat  (None, 7, 7, 64)         256       \n",
            " chNormalization)                                                \n",
            "                                                                 \n",
            " max_pooling2d_8 (MaxPooling  (None, 6, 6, 64)         0         \n",
            " 2D)                                                             \n",
            "                                                                 \n",
            " dropout_12 (Dropout)        (None, 6, 6, 64)          0         \n",
            "                                                                 \n",
            " flatten_2 (Flatten)         (None, 2304)              0         \n",
            "                                                                 \n",
            " dense_6 (Dense)             (None, 512)               1180160   \n",
            "                                                                 \n",
            " dropout_13 (Dropout)        (None, 512)               0         \n",
            "                                                                 \n",
            " dense_7 (Dense)             (None, 1024)              525312    \n",
            "                                                                 \n",
            " dropout_14 (Dropout)        (None, 1024)              0         \n",
            "                                                                 \n",
            " dense_8 (Dense)             (None, 10)                10250     \n",
            "                                                                 \n",
            "=================================================================\n",
            "Total params: 1,844,074\n",
            "Trainable params: 1,843,626\n",
            "Non-trainable params: 448\n",
            "_________________________________________________________________\n",
            "accuracy: 99.07%\n"
…
